…
NewModel_5_conv_32_nodes_1_dense_3_kernelSz_adam_optimizer_0_001lr_0_0_dropr_
NewModel_5_conv_32_nodes_1_dense_4_kernelSz_adam_optimizer_0_001lr_0_0_dropr_
4_conv_16_nodes_1_dense_2_kernelSz_adam_optimizer_0_01lr_0_0_dropr_
('4', '16', '1', '2', 'adam', '0_01', '0_0')
4 16 1 2 adam 0.01 0.0
4_conv_16_nodes_1_dense_2_kernelSz_adam_optimizer_0_01lr_0_0_dropr_20200226_091640_T
Model: "sequential"
_________________________________________________________________
Layer (type)                 Output Shape              Param #
=================================================================
conv2d (Conv2D)              (None, 299, 299, 16)      208
_________________________________________________________________
max_pooling2d (MaxPooling2D) (None, 149, 149, 16)      0
_________________________________________________________________
dropout (Dropout)            (None, 149, 149, 16)      0
_________________________________________________________________
conv2d_1 (Conv2D)            (None, 148, 148, 16)      1040
_________________________________________________________________
max_pooling2d_1 (MaxPooling2 (None, 74, 74, 16)        0
_________________________________________________________________
dropout_1 (Dropout)          (None, 74, 74, 16)        0
_________________________________________________________________
conv2d_2 (Conv2D)            (None, 73, 73, 32)        2080
_________________________________________________________________
max_pooling2d_2 (MaxPooling2 (None, 36, 36, 32)        0
_________________________________________________________________
dropout_2 (Dropout)          (None, 36, 36, 32)        0
_________________________________________________________________
conv2d_3 (Conv2D)            (None, 35, 35, 64)        8256
_________________________________________________________________
max_pooling2d_3 (MaxPooling2 (None, 17, 17, 64)        0
_________________________________________________________________
dropout_3 (Dropout)          (None, 17, 17, 64)        0
_________________________________________________________________
flatten (Flatten)            (None, 18496)             0
_________________________________________________________________
dense (Dense)                (None, 256)               4735232
_________________________________________________________________
activation (Activation)      (None, 256)               0
_________________________________________________________________
dropout_4 (Dropout)          (None, 256)               0
_________________________________________________________________
dense_1 (Dense)              (None, 3)                 771
=================================================================
Total params: 4,747,587
Trainable params: 4,747,587
Non-trainable params: 0
_________________________________________________________________
None
Found 2321 images belonging to 3 classes.
Found 663 images belonging to 3 classes.
Epoch 1/30
2020-02-26 09:16:42.116566: I tensorflow/stream_executor/platform/default/dso_loader.cc:44] Successfully opened dynamic library cudnn64_7.dll
…
   macro avg       0.73      0.73      0.73       333
weighted avg       0.74      0.75      0.74       333

[0.5599669610912149, 0.7477477]
4_conv_16_nodes_1_dense_3_kernelSz_adam_optimizer_0_01lr_0_0_dropr_
('4', '16', '1', '3', 'adam', '0_01', '0_0')
4 16 1 3 adam 0.01 0.0
4_conv_16_nodes_1_dense_3_kernelSz_adam_optimizer_0_01lr_0_0_dropr_20200226_110937_T
Model: "sequential_1"
_________________________________________________________________
Layer (type)                 Output Shape              Param #
=================================================================
conv2d_4 (Conv2D)            (None, 298, 298, 16)      448
_________________________________________________________________
max_pooling2d_4 (MaxPooling2 (None, 149, 149, 16)      0
_________________________________________________________________
dropout_5 (Dropout)          (None, 149, 149, 16)      0
_________________________________________________________________
conv2d_5 (Conv2D)            (None, 147, 147, 16)      2320
_________________________________________________________________
max_pooling2d_5 (MaxPooling2 (None, 73, 73, 16)        0
_________________________________________________________________
dropout_6 (Dropout)          (None, 73, 73, 16)        0
_________________________________________________________________
conv2d_6 (Conv2D)            (None, 71, 71, 32)        4640
_________________________________________________________________
max_pooling2d_6 (MaxPooling2 (None, 35, 35, 32)        0
_________________________________________________________________
dropout_7 (Dropout)          (None, 35, 35, 32)        0
_________________________________________________________________
conv2d_7 (Conv2D)            (None, 33, 33, 64)        18496
_________________________________________________________________
max_pooling2d_7 (MaxPooling2 (None, 16, 16, 64)        0
_________________________________________________________________
dropout_8 (Dropout)          (None, 16, 16, 64)        0
_________________________________________________________________
flatten_1 (Flatten)          (None, 16384)             0
_________________________________________________________________
dense_2 (Dense)              (None, 256)               4194560
_________________________________________________________________
activation_1 (Activation)    (None, 256)               0
_________________________________________________________________
dropout_9 (Dropout)          (None, 256)               0
_________________________________________________________________
dense_3 (Dense)              (None, 3)                 771
=================================================================
Total params: 4,221,235
Trainable params: 4,221,235
Non-trainable params: 0
_________________________________________________________________
None
Found 2321 images belonging to 3 classes.
Found 663 images belonging to 3 classes.
Epoch 1/30
2020-02-26 11:09:38.805191: I tensorflow/core/profiler/lib/profiler_session.cc:184] Profiler session started.
…
   macro avg       0.73      0.72      0.72       333
weighted avg       0.73      0.74      0.73       333

[0.5856428320773623, 0.7417417]
4_conv_32_nodes_2_dense_4_kernelSz_adam_optimizer_0_001lr_0_0_dropr_
('4', '32', '2', '4', 'adam', '0_001', '0_0')
4 32 2 4 adam 0.001 0.0
4_conv_32_nodes_2_dense_4_kernelSz_adam_optimizer_0_001lr_0_0_dropr_20200226_124902_T
Model: "sequential_2"
_________________________________________________________________
Layer (type)                 Output Shape              Param #
=================================================================
conv2d_8 (Conv2D)            (None, 297, 297, 32)      1568
_________________________________________________________________
max_pooling2d_8 (MaxPooling2 (None, 148, 148, 32)      0
_________________________________________________________________
dropout_10 (Dropout)         (None, 148, 148, 32)      0
_________________________________________________________________
conv2d_9 (Conv2D)            (None, 145, 145, 32)      16416
_________________________________________________________________
max_pooling2d_9 (MaxPooling2 (None, 72, 72, 32)        0
_________________________________________________________________
dropout_11 (Dropout)         (None, 72, 72, 32)        0
_________________________________________________________________
conv2d_10 (Conv2D)           (None, 69, 69, 64)        32832
_________________________________________________________________
max_pooling2d_10 (MaxPooling (None, 34, 34, 64)        0
_________________________________________________________________
dropout_12 (Dropout)         (None, 34, 34, 64)        0
_________________________________________________________________
conv2d_11 (Conv2D)           (None, 31, 31, 128)       131200
_________________________________________________________________
max_pooling2d_11 (MaxPooling (None, 15, 15, 128)       0
_________________________________________________________________
dropout_13 (Dropout)         (None, 15, 15, 128)       0
_________________________________________________________________
flatten_2 (Flatten)          (None, 28800)             0
_________________________________________________________________
dense_4 (Dense)              (None, 512)               14746112
_________________________________________________________________
activation_2 (Activation)    (None, 512)               0
_________________________________________________________________
dropout_14 (Dropout)         (None, 512)               0
_________________________________________________________________
dense_5 (Dense)              (None, 512)               262656
_________________________________________________________________
activation_3 (Activation)    (None, 512)               0
_________________________________________________________________
dropout_15 (Dropout)         (None, 512)               0
_________________________________________________________________
dense_6 (Dense)              (None, 3)                 1539
=================================================================
Total params: 15,192,323
Trainable params: 15,192,323
Non-trainable params: 0
_________________________________________________________________
None
Found 2321 images belonging to 3 classes.
Found 663 images belonging to 3 classes.
Epoch 1/30
2020-02-26 12:49:04.618641: I tensorflow/core/profiler/lib/profiler_session.cc:184] Profiler session started.
…
   macro avg       0.70      0.69      0.69       333
weighted avg       0.71      0.71      0.70       333

[0.6465277875011618, 0.7087087]
5_conv_16_nodes_1_dense_3_kernelSz_adam_optimizer_0_001lr_0_0_dropr_
('5', '16', '1', '3', 'adam', '0_001', '0_0')
5 16 1 3 adam 0.001 0.0
5_conv_16_nodes_1_dense_3_kernelSz_adam_optimizer_0_001lr_0_0_dropr_20200226_140305_T
Model: "sequential_3"
_________________________________________________________________
Layer (type)                 Output Shape              Param #
=================================================================
conv2d_12 (Conv2D)           (None, 298, 298, 16)      448
_________________________________________________________________
max_pooling2d_12 (MaxPooling (None, 149, 149, 16)      0
_________________________________________________________________
dropout_16 (Dropout)         (None, 149, 149, 16)      0
_________________________________________________________________
conv2d_13 (Conv2D)           (None, 147, 147, 16)      2320
_________________________________________________________________
max_pooling2d_13 (MaxPooling (None, 73, 73, 16)        0
_________________________________________________________________
dropout_17 (Dropout)         (None, 73, 73, 16)        0
_________________________________________________________________
conv2d_14 (Conv2D)           (None, 71, 71, 32)        4640
_________________________________________________________________
max_pooling2d_14 (MaxPooling (None, 35, 35, 32)        0
_________________________________________________________________
dropout_18 (Dropout)         (None, 35, 35, 32)        0
_________________________________________________________________
conv2d_15 (Conv2D)           (None, 33, 33, 64)        18496
_________________________________________________________________
max_pooling2d_15 (MaxPooling (None, 16, 16, 64)        0
_________________________________________________________________
dropout_19 (Dropout)         (None, 16, 16, 64)        0
_________________________________________________________________
conv2d_16 (Conv2D)           (None, 14, 14, 128)       73856
_________________________________________________________________
max_pooling2d_16 (MaxPooling (None, 7, 7, 128)         0
_________________________________________________________________
dropout_20 (Dropout)         (None, 7, 7, 128)         0
_________________________________________________________________
flatten_3 (Flatten)          (None, 6272)              0
_________________________________________________________________
dense_7 (Dense)              (None, 256)               1605888
_________________________________________________________________
activation_4 (Activation)    (None, 256)               0
_________________________________________________________________
dropout_21 (Dropout)         (None, 256)               0
_________________________________________________________________
dense_8 (Dense)              (None, 3)                 771
=================================================================
Total params: 1,706,419
Trainable params: 1,706,419
Non-trainable params: 0
_________________________________________________________________
None
Found 2321 images belonging to 3 classes.
Found 663 images belonging to 3 classes.
Epoch 1/30
2020-02-26 14:03:07.668483: I tensorflow/core/profiler/lib/profiler_session.cc:184] Profiler session started.
…
   macro avg       0.62      0.60      0.61       333
weighted avg       0.65      0.62      0.63       333

[0.7107917828993364, 0.6186186]
5_conv_32_nodes_0_dense_2_kernelSz_adam_optimizer_0_001lr_0_0_dropr_
('5', '32', '0', '2', 'adam', '0_001', '0_0')
5 32 0 2 adam 0.001 0.0
5_conv_32_nodes_0_dense_2_kernelSz_adam_optimizer_0_001lr_0_0_dropr_20200226_153846_T
Model: "sequential_5"
_________________________________________________________________
Layer (type)                 Output Shape              Param #
=================================================================
conv2d_22 (Conv2D)           (None, 299, 299, 32)      416
_________________________________________________________________
max_pooling2d_22 (MaxPooling (None, 149, 149, 32)      0
_________________________________________________________________
dropout_28 (Dropout)         (None, 149, 149, 32)      0
_________________________________________________________________
conv2d_23 (Conv2D)           (None, 148, 148, 32)      4128
_________________________________________________________________
max_pooling2d_23 (MaxPooling (None, 74, 74, 32)        0
_________________________________________________________________
dropout_29 (Dropout)         (None, 74, 74, 32)        0
_________________________________________________________________
conv2d_24 (Conv2D)           (None, 73, 73, 64)        8256
_________________________________________________________________
max_pooling2d_24 (MaxPooling (None, 36, 36, 64)        0
_________________________________________________________________
dropout_30 (Dropout)         (None, 36, 36, 64)        0
_________________________________________________________________
conv2d_25 (Conv2D)           (None, 35, 35, 128)       32896
_________________________________________________________________
max_pooling2d_25 (MaxPooling (None, 17, 17, 128)       0
_________________________________________________________________
dropout_31 (Dropout)         (None, 17, 17, 128)       0
_________________________________________________________________
conv2d_26 (Conv2D)           (None, 16, 16, 256)       131328
_________________________________________________________________
max_pooling2d_26 (MaxPooling (None, 8, 8, 256)         0
_________________________________________________________________
dropout_32 (Dropout)         (None, 8, 8, 256)         0
_________________________________________________________________
flatten_5 (Flatten)          (None, 16384)             0
_________________________________________________________________
dense_11 (Dense)             (None, 3)                 49155
=================================================================
Total params: 226,179
Trainable params: 226,179
Non-trainable params: 0
_________________________________________________________________
None
Found 2321 images belonging to 3 classes.
Found 663 images belonging to 3 classes.
Epoch 1/30
2020-02-26 15:38:48.698196: I tensorflow/core/profiler/lib/profiler_session.cc:184] Profiler session started.
…
   macro avg       0.68      0.66      0.65       333
weighted avg       0.68      0.68      0.67       333

[0.8193328871645711, 0.6846847]
5_conv_32_nodes_0_dense_4_kernelSz_adam_optimizer_0_001lr_0_0_dropr_
('5', '32', '0', '4', 'adam', '0_001', '0_0')
5 32 0 4 adam 0.001 0.0
5_conv_32_nodes_0_dense_4_kernelSz_adam_optimizer_0_001lr_0_0_dropr_20200226_162107_T
Model: "sequential_6"
_________________________________________________________________
Layer (type)                 Output Shape              Param #
=================================================================
conv2d_27 (Conv2D)           (None, 297, 297, 32)      1568
_________________________________________________________________
max_pooling2d_27 (MaxPooling (None, 148, 148, 32)      0
_________________________________________________________________
dropout_33 (Dropout)         (None, 148, 148, 32)      0
_________________________________________________________________
conv2d_28 (Conv2D)           (None, 145, 145, 32)      16416
_________________________________________________________________
max_pooling2d_28 (MaxPooling (None, 72, 72, 32)        0
_________________________________________________________________
dropout_34 (Dropout)         (None, 72, 72, 32)        0
_________________________________________________________________
conv2d_29 (Conv2D)           (None, 69, 69, 64)        32832
_________________________________________________________________
max_pooling2d_29 (MaxPooling (None, 34, 34, 64)        0
_________________________________________________________________
dropout_35 (Dropout)         (None, 34, 34, 64)        0
_________________________________________________________________
conv2d_30 (Conv2D)           (None, 31, 31, 128)       131200
_________________________________________________________________
max_pooling2d_30 (MaxPooling (None, 15, 15, 128)       0
_________________________________________________________________
dropout_36 (Dropout)         (None, 15, 15, 128)       0
_________________________________________________________________
conv2d_31 (Conv2D)           (None, 12, 12, 256)       524544
_________________________________________________________________
max_pooling2d_31 (MaxPooling (None, 6, 6, 256)         0
_________________________________________________________________
dropout_37 (Dropout)         (None, 6, 6, 256)         0
_________________________________________________________________
flatten_6 (Flatten)          (None, 9216)              0
_________________________________________________________________
dense_12 (Dense)             (None, 3)                 27651
=================================================================
Total params: 734,211
Trainable params: 734,211
Non-trainable params: 0
_________________________________________________________________
None
Found 2321 images belonging to 3 classes.
Found 663 images belonging to 3 classes.
Epoch 1/30
2020-02-26 16:21:09.571034: I tensorflow/core/profiler/lib/profiler_session.cc:184] Profiler session started.
…
   macro avg       0.74      0.73      0.72       333
weighted avg       0.75      0.74      0.73       333

[0.5677256990562786, 0.7357357]
5_conv_32_nodes_1_dense_3_kernelSz_adam_optimizer_0_001lr_0_0_dropr_
('5', '32', '1', '3', 'adam', '0_001', '0_0')
5 32 1 3 adam 0.001 0.0
5_conv_32_nodes_1_dense_3_kernelSz_adam_optimizer_0_001lr_0_0_dropr_20200226_185302_T
Model: "sequential_8"
_________________________________________________________________
Layer (type)                 Output Shape              Param #
=================================================================
conv2d_37 (Conv2D)           (None, 298, 298, 32)      896
_________________________________________________________________
max_pooling2d_37 (MaxPooling (None, 149, 149, 32)      0
_________________________________________________________________
dropout_43 (Dropout)         (None, 149, 149, 32)      0
_________________________________________________________________
conv2d_38 (Conv2D)           (None, 147, 147, 32)      9248
_________________________________________________________________
max_pooling2d_38 (MaxPooling (None, 73, 73, 32)        0
_________________________________________________________________
dropout_44 (Dropout)         (None, 73, 73, 32)        0
_________________________________________________________________
conv2d_39 (Conv2D)           (None, 71, 71, 64)        18496
_________________________________________________________________
max_pooling2d_39 (MaxPooling (None, 35, 35, 64)        0
_________________________________________________________________
dropout_45 (Dropout)         (None, 35, 35, 64)        0
_________________________________________________________________
conv2d_40 (Conv2D)           (None, 33, 33, 128)       73856
_________________________________________________________________
max_pooling2d_40 (MaxPooling (None, 16, 16, 128)       0
_________________________________________________________________
dropout_46 (Dropout)         (None, 16, 16, 128)       0
_________________________________________________________________
conv2d_41 (Conv2D)           (None, 14, 14, 256)       295168
_________________________________________________________________
max_pooling2d_41 (MaxPooling (None, 7, 7, 256)         0
_________________________________________________________________
dropout_47 (Dropout)         (None, 7, 7, 256)         0
_________________________________________________________________
flatten_8 (Flatten)          (None, 12544)             0
_________________________________________________________________
dense_14 (Dense)             (None, 512)               6423040
_________________________________________________________________
activation_6 (Activation)    (None, 512)               0
_________________________________________________________________
dropout_48 (Dropout)         (None, 512)               0
_________________________________________________________________
dense_15 (Dense)             (None, 3)                 1539
=================================================================
Total params: 6,822,243
Trainable params: 6,822,243
Non-trainable params: 0
_________________________________________________________________
None
Found 2321 images belonging to 3 classes.
Found 663 images belonging to 3 classes.
Epoch 1/30
2020-02-26 18:53:05.131666: I tensorflow/core/profiler/lib/profiler_session.cc:184] Profiler session started.
…
   macro avg       0.67      0.66      0.66       333
weighted avg       0.69      0.68      0.68       333

[0.6220880421725187, 0.6846847]
5_conv_32_nodes_1_dense_4_kernelSz_adam_optimizer_0_001lr_0_0_dropr_
('5', '32', '1', '4', 'adam', '0_001', '0_0')
5 32 1 4 adam 0.001 0.0
5_conv_32_nodes_1_dense_4_kernelSz_adam_optimizer_0_001lr_0_0_dropr_20200226_192246_T
Model: "sequential_9"
_________________________________________________________________
Layer (type)                 Output Shape              Param #
=================================================================
conv2d_42 (Conv2D)           (None, 297, 297, 32)      1568
_________________________________________________________________
max_pooling2d_42 (MaxPooling (None, 148, 148, 32)      0
_________________________________________________________________
dropout_49 (Dropout)         (None, 148, 148, 32)      0
_________________________________________________________________
conv2d_43 (Conv2D)           (None, 145, 145, 32)      16416
_________________________________________________________________
max_pooling2d_43 (MaxPooling (None, 72, 72, 32)        0
_________________________________________________________________
dropout_50 (Dropout)         (None, 72, 72, 32)        0
_________________________________________________________________
conv2d_44 (Conv2D)           (None, 69, 69, 64)        32832
_________________________________________________________________
max_pooling2d_44 (MaxPooling (None, 34, 34, 64)        0
_________________________________________________________________
dropout_51 (Dropout)         (None, 34, 34, 64)        0
_________________________________________________________________
conv2d_45 (Conv2D)           (None, 31, 31, 128)       131200
_________________________________________________________________
max_pooling2d_45 (MaxPooling (None, 15, 15, 128)       0
_________________________________________________________________
dropout_52 (Dropout)         (None, 15, 15, 128)       0
_________________________________________________________________
conv2d_46 (Conv2D)           (None, 12, 12, 256)       524544
_________________________________________________________________
max_pooling2d_46 (MaxPooling (None, 6, 6, 256)         0
_________________________________________________________________
dropout_53 (Dropout)         (None, 6, 6, 256)         0
_________________________________________________________________
flatten_9 (Flatten)          (None, 9216)              0
_________________________________________________________________
dense_16 (Dense)             (None, 512)               4719104
_________________________________________________________________
activation_7 (Activation)    (None, 512)               0
_________________________________________________________________
dropout_54 (Dropout)         (None, 512)               0
_________________________________________________________________
dense_17 (Dense)             (None, 3)                 1539
=================================================================
Total params: 5,427,203
Trainable params: 5,427,203
Non-trainable params: 0
_________________________________________________________________
None
Found 2321 images belonging to 3 classes.
Found 663 images belonging to 3 classes.
Epoch 1/30
2020-02-26 19:22:48.933938: I tensorflow/core/profiler/lib/profiler_session.cc:184] Profiler session started.
…
