…
2020-02-27 00:25:03.709106: I tensorflow/core/common_runtime/gpu/gpu_device.cc:1304] Created TensorFlow device (/job:localhost/replica:0/task:0/device:GPU:0 with 5800 MB memory) -> physical GPU (device: 0, name: GeForce GTX 1080, pci bus id: 0000:09:00.0, c
ompute capability: 6.1)
1 Physical GPUs, 1 Logical GPUs
Found 2321 images belonging to 3 classes.
Found 663 images belonging to 3 classes.
Found 333 images belonging to 3 classes.
Model: "sequential_1"
_________________________________________________________________
Layer (type)                 Output Shape              Param #
=================================================================
conv2d (Conv2D)              (None, 147, 147, 32)      1568
_________________________________________________________________
max_pooling2d (MaxPooling2D) (None, 73, 73, 32)        0
_________________________________________________________________
conv2d_1 (Conv2D)            (None, 70, 70, 32)        16416
_________________________________________________________________
max_pooling2d_1 (MaxPooling2 (None, 35, 35, 32)        0
_________________________________________________________________
conv2d_2 (Conv2D)            (None, 32, 32, 64)        32832
_________________________________________________________________
max_pooling2d_2 (MaxPooling2 (None, 16, 16, 64)        0
_________________________________________________________________
conv2d_3 (Conv2D)            (None, 13, 13, 128)       131200
_________________________________________________________________
max_pooling2d_3 (MaxPooling2 (None, 6, 6, 128)         0
_________________________________________________________________
conv2d_4 (Conv2D)            (None, 3, 3, 256)         524544
_________________________________________________________________
max_pooling2d_4 (MaxPooling2 (None, 1, 1, 256)         0
_________________________________________________________________
flatten (Flatten)            (None, 256)               0
_________________________________________________________________
dense (Dense)                (None, 512)               131584
_________________________________________________________________
activation (Activation)      (None, 512)               0
_________________________________________________________________
dense_1 (Dense)              (None, 3)                 1539
=================================================================
Total params: 839,683
Trainable params: 839,683
Non-trainable params: 0
_________________________________________________________________
None
37 156
Epoch 1/30
2020-02-27 00:25:05.027887: I tensorflow/stream_executor/platform/default/dso_loader.cc:44] Successfully opened dynamic library cudnn64_7.dll
2020-02-27 00:25:05.715031: W tensorflow/stream_executor/cuda/redzone_allocator.cc:312] Internal: Invoking ptxas not supported on Windows
…
